…
    "perf/updates_per_sec": 0.06955422753800715,
    "train/len50": 1000.0,
    "train/ret50": 84.44360954284667
  },
  "git_commit_hash": "cb44f726ecb3a0d01ee6e9895c457e973268dcc9",
  "git_sha": "cb44f72",
  "model": {
    "act_embed_dim": 16,
    "action_mode": "discrete",
    "algorithm": "ppo",
    "encoder": "cnn",
    "feat_dim": 64,
    "hidden_dim": 128,
    "policy": "ff",
    "use_prev_action": false,
    "use_traces": false
  },
  "model_architecture": {
    "actor_critic": "OptimizedModule(\n  (_orig_mod): ActorCritic(\n    (f_pol): FeatureEncoder(\n      (obs_encoder): ConvEncoder(\n        (conv): Sequential(\n          (0): Conv2d(3, 32, kernel_size=(8, 8), stride=(4, 4))\n          (1): ReLU()\n          (2): Conv2d(32, 64, kernel_size=(4, 4), stride=(2, 2))\n          (3): ReLU()\n          (4): Conv2d(64, 64, kernel_size=(3, 3), stride=(1, 1))\n          (5): ReLU()\n        )\n        (head): Sequential(\n          (0): Linear(in_features=4096, out_features=128, bias=True)\n          (1): ReLU()\n          (2): Linear(in_features=128, out_features=64, bias=True)\n        )\n      )\n    )\n    (core): MLP(\n      (net): Sequential(\n        (0): Linear(in_features=64, out_features=128, bias=True)\n        (1): Tanh()\n        (2): Linear(in_features=128, out_features=128, bias=True)\n        (3): Tanh()\n        (4): Linear(in_features=128, out_features=128, bias=True)\n      )\n    )\n    (pi): Linear(in_features=128, out_features=7, bias=True)\n    (v): Linear(in_features=128, out_features=1, bias=True)\n  )\n)",
    "feature_encoder_ema": null,
    "predictor": null
  },
  "run_dir": "reports/benchmarks/ab_stationary_fullobs_ff_conf_v8_ppo_s0_profiling-optimized-8",
  "run_id": "ab_stationary_fullobs_ff_conf_v8_ppo_s0_profiling-optimized-8",
  "run_identity": {
    "algorithm": "ppo",
    "env_id": "CarRacing-v3",
    "policy": "ff",
    "regime": "stationary_fullobs",
…
